{"format": "graph-model", "generatedBy": "2.15.0", "convertedBy": "TensorFlow.js Converter v4.22.0", "signature": {"inputs": {"input_2": {"name": "input_2:0", "dtype": "DT_FLOAT", "tensorShape": {"dim": [{"size": "-1"}, {"size": "3"}]}}}, "outputs": {"output_0": {"name": "Identity:0", "dtype": "DT_FLOAT", "tensorShape": {"dim": [{"size": "-1"}, {"size": "20"}]}}}}, "modelTopology": {"node": [{"name": "StatefulPartitionedCall/sequential_1/dense_4/MatMul/ReadVariableOp", "op": "Const", "attr": {"value": {"tensor": {"dtype": "DT_FLOAT", "tensorShape": {"dim": [{"size": "3"}, {"size": "288"}]}}}, "dtype": {"type": "DT_FLOAT"}}}, {"name": "StatefulPartitionedCall/sequential_1/dense_4/BiasAdd/ReadVariableOp", "op": "Const", "attr": {"value": {"tensor": {"dtype": "DT_FLOAT", "tensorShape": {"dim": [{"size": "288"}]}}}, "dtype": {"type": "DT_FLOAT"}}}, {"name": "StatefulPartitionedCall/sequential_1/batch_normalization_3/batchnorm/mul", "op": "Const", "attr": {"value": {"tensor": {"dtype": "DT_FLOAT", "tensorShape": {"dim": [{"size": "288"}]}}}, "dtype": {"type": "DT_FLOAT"}}}, {"name": "StatefulPartitionedCall/sequential_1/batch_normalization_3/batchnorm/sub", "op": "Const", "attr": {"value": {"tensor": {"dtype": "DT_FLOAT", "tensorShape": {"dim": [{"size": "288"}]}}}, "dtype": {"type": "DT_FLOAT"}}}, {"name": "StatefulPartitionedCall/sequential_1/dense_5/MatMul/ReadVariableOp", "op": "Const", "attr": {"value": {"tensor": {"dtype": "DT_FLOAT", "tensorShape": {"dim": [{"size": "288"}, {"size": "64"}]}}}, "dtype": {"type": "DT_FLOAT"}}}, {"name": "StatefulPartitionedCall/sequential_1/dense_5/BiasAdd/ReadVariableOp", "op": "Const", "attr": {"value": {"tensor": {"dtype": "DT_FLOAT", "tensorShape": {"dim": [{"size": "64"}]}}}, "dtype": {"type": "DT_FLOAT"}}}, {"name": "StatefulPartitionedCall/sequential_1/batch_normalization_4/batchnorm/mul", "op": "Const", "attr": {"value": {"tensor": {"dtype": "DT_FLOAT", "tensorShape": {"dim": [{"size": "64"}]}}}, "dtype": {"type": "DT_FLOAT"}}}, {"name": "StatefulPartitionedCall/sequential_1/batch_normalization_4/batchnorm/sub", "op": "Const", "attr": {"value": {"tensor": {"dtype": "DT_FLOAT", "tensorShape": {"dim": [{"size": "64"}]}}}, "dtype": {"type": "DT_FLOAT"}}}, {"name": "StatefulPartitionedCall/sequential_1/dense_6/MatMul/ReadVariableOp", "op": "Const", "attr": {"value": {"tensor": {"dtype": "DT_FLOAT", "tensorShape": {"dim": [{"size": "64"}, {"size": "224"}]}}}, "dtype": {"type": "DT_FLOAT"}}}, {"name": "StatefulPartitionedCall/sequential_1/dense_6/BiasAdd/ReadVariableOp", "op": "Const", "attr": {"value": {"tensor": {"dtype": "DT_FLOAT", "tensorShape": {"dim": [{"size": "224"}]}}}, "dtype": {"type": "DT_FLOAT"}}}, {"name": "StatefulPartitionedCall/sequential_1/batch_normalization_5/batchnorm/mul", "op": "Const", "attr": {"value": {"tensor": {"dtype": "DT_FLOAT", "tensorShape": {"dim": [{"size": "224"}]}}}, "dtype": {"type": "DT_FLOAT"}}}, {"name": "StatefulPartitionedCall/sequential_1/batch_normalization_5/batchnorm/sub", "op": "Const", "attr": {"value": {"tensor": {"dtype": "DT_FLOAT", "tensorShape": {"dim": [{"size": "224"}]}}}, "dtype": {"type": "DT_FLOAT"}}}, {"name": "StatefulPartitionedCall/sequential_1/dense_7/MatMul/ReadVariableOp", "op": "Const", "attr": {"value": {"tensor": {"dtype": "DT_FLOAT", "tensorShape": {"dim": [{"size": "224"}, {"size": "20"}]}}}, "dtype": {"type": "DT_FLOAT"}}}, {"name": "StatefulPartitionedCall/sequential_1/dense_7/BiasAdd/ReadVariableOp", "op": "Const", "attr": {"value": {"tensor": {"dtype": "DT_FLOAT", "tensorShape": {"dim": [{"size": "20"}]}}}, "dtype": {"type": "DT_FLOAT"}}}, {"name": "input_2", "op": "Placeholder", "attr": {"shape": {"shape": {"dim": [{"size": "-1"}, {"size": "3"}]}}, "dtype": {"type": "DT_FLOAT"}}}, {"name": "StatefulPartitionedCall/sequential_1/dense_4/Relu", "op": "_FusedMatMul", "input": ["input_2", "StatefulPartitionedCall/sequential_1/dense_4/MatMul/ReadVariableOp", "StatefulPartitionedCall/sequential_1/dense_4/BiasAdd/ReadVariableOp"], "device": "/device:CPU:0", "attr": {"transpose_a": {"b": false}, "transpose_b": {"b": false}, "fused_ops": {"list": {"s": ["Qmlhc0FkZA==", "UmVsdQ=="]}}, "num_args": {"i": "1"}, "leakyrelu_alpha": {"f": 0.2}, "epsilon": {"f": 0.0}, "T": {"type": "DT_FLOAT"}}}, {"name": "StatefulPartitionedCall/sequential_1/batch_normalization_3/batchnorm/mul_1", "op": "Mul", "input": ["StatefulPartitionedCall/sequential_1/dense_4/Relu", "StatefulPartitionedCall/sequential_1/batch_normalization_3/batchnorm/mul"], "attr": {"T": {"type": "DT_FLOAT"}}}, {"name": "StatefulPartitionedCall/sequential_1/batch_normalization_3/batchnorm/add_1", "op": "AddV2", "input": ["StatefulPartitionedCall/sequential_1/batch_normalization_3/batchnorm/mul_1", "StatefulPartitionedCall/sequential_1/batch_normalization_3/batchnorm/sub"], "attr": {"T": {"type": "DT_FLOAT"}}}, {"name": "StatefulPartitionedCall/sequential_1/dense_5/Relu", "op": "_FusedMatMul", "input": ["StatefulPartitionedCall/sequential_1/batch_normalization_3/batchnorm/add_1", "StatefulPartitionedCall/sequential_1/dense_5/MatMul/ReadVariableOp", "StatefulPartitionedCall/sequential_1/dense_5/BiasAdd/ReadVariableOp"], "device": "/device:CPU:0", "attr": {"transpose_a": {"b": false}, "transpose_b": {"b": false}, "fused_ops": {"list": {"s": ["Qmlhc0FkZA==", "UmVsdQ=="]}}, "leakyrelu_alpha": {"f": 0.2}, "num_args": {"i": "1"}, "epsilon": {"f": 0.0}, "T": {"type": "DT_FLOAT"}}}, {"name": "StatefulPartitionedCall/sequential_1/batch_normalization_4/batchnorm/mul_1", "op": "Mul", "input": ["StatefulPartitionedCall/sequential_1/dense_5/Relu", "StatefulPartitionedCall/sequential_1/batch_normalization_4/batchnorm/mul"], "attr": {"T": {"type": "DT_FLOAT"}}}, {"name": "StatefulPartitionedCall/sequential_1/batch_normalization_4/batchnorm/add_1", "op": "AddV2", "input": ["StatefulPartitionedCall/sequential_1/batch_normalization_4/batchnorm/mul_1", "StatefulPartitionedCall/sequential_1/batch_normalization_4/batchnorm/sub"], "attr": {"T": {"type": "DT_FLOAT"}}}, {"name": "StatefulPartitionedCall/sequential_1/dense_6/Relu", "op": "_FusedMatMul", "input": ["StatefulPartitionedCall/sequential_1/batch_normalization_4/batchnorm/add_1", "StatefulPartitionedCall/sequential_1/dense_6/MatMul/ReadVariableOp", "StatefulPartitionedCall/sequential_1/dense_6/BiasAdd/ReadVariableOp"], "device": "/device:CPU:0", "attr": {"transpose_a": {"b": false}, "transpose_b": {"b": false}, "fused_ops": {"list": {"s": ["Qmlhc0FkZA==", "UmVsdQ=="]}}, "num_args": {"i": "1"}, "leakyrelu_alpha": {"f": 0.2}, "epsilon": {"f": 0.0}, "T": {"type": "DT_FLOAT"}}}, {"name": "StatefulPartitionedCall/sequential_1/batch_normalization_5/batchnorm/mul_1", "op": "Mul", "input": ["StatefulPartitionedCall/sequential_1/dense_6/Relu", "StatefulPartitionedCall/sequential_1/batch_normalization_5/batchnorm/mul"], "attr": {"T": {"type": "DT_FLOAT"}}}, {"name": "StatefulPartitionedCall/sequential_1/batch_normalization_5/batchnorm/add_1", "op": "AddV2", "input": ["StatefulPartitionedCall/sequential_1/batch_normalization_5/batchnorm/mul_1", "StatefulPartitionedCall/sequential_1/batch_normalization_5/batchnorm/sub"], "attr": {"T": {"type": "DT_FLOAT"}}}, {"name": "StatefulPartitionedCall/sequential_1/dense_7/BiasAdd", "op": "_FusedMatMul", "input": ["StatefulPartitionedCall/sequential_1/batch_normalization_5/batchnorm/add_1", "StatefulPartitionedCall/sequential_1/dense_7/MatMul/ReadVariableOp", "StatefulPartitionedCall/sequential_1/dense_7/BiasAdd/ReadVariableOp"], "device": "/device:CPU:0", "attr": {"transpose_a": {"b": false}, "transpose_b": {"b": false}, "fused_ops": {"list": {"s": ["Qmlhc0FkZA=="]}}, "num_args": {"i": "1"}, "leakyrelu_alpha": {"f": 0.2}, "epsilon": {"f": 0.0}, "T": {"type": "DT_FLOAT"}}}, {"name": "Identity", "op": "Identity", "input": ["StatefulPartitionedCall/sequential_1/dense_7/BiasAdd"], "attr": {"T": {"type": "DT_FLOAT"}}}], "library": {}, "versions": {"producer": 1994}}, "weightsManifest": [{"paths": ["group1-shard1of1.bin"], "weights": [{"name": "StatefulPartitionedCall/sequential_1/dense_4/MatMul/ReadVariableOp", "shape": [3, 288], "dtype": "float32"}, {"name": "StatefulPartitionedCall/sequential_1/dense_4/BiasAdd/ReadVariableOp", "shape": [288], "dtype": "float32"}, {"name": "StatefulPartitionedCall/sequential_1/batch_normalization_3/batchnorm/mul", "shape": [288], "dtype": "float32"}, {"name": "StatefulPartitionedCall/sequential_1/batch_normalization_3/batchnorm/sub", "shape": [288], "dtype": "float32"}, {"name": "StatefulPartitionedCall/sequential_1/dense_5/MatMul/ReadVariableOp", "shape": [288, 64], "dtype": "float32"}, {"name": "StatefulPartitionedCall/sequential_1/dense_5/BiasAdd/ReadVariableOp", "shape": [64], "dtype": "float32"}, {"name": "StatefulPartitionedCall/sequential_1/batch_normalization_4/batchnorm/mul", "shape": [64], "dtype": "float32"}, {"name": "StatefulPartitionedCall/sequential_1/batch_normalization_4/batchnorm/sub", "shape": [64], "dtype": "float32"}, {"name": "StatefulPartitionedCall/sequential_1/dense_6/MatMul/ReadVariableOp", "shape": [64, 224], "dtype": "float32"}, {"name": "StatefulPartitionedCall/sequential_1/dense_6/BiasAdd/ReadVariableOp", "shape": [224], "dtype": "float32"}, {"name": "StatefulPartitionedCall/sequential_1/batch_normalization_5/batchnorm/mul", "shape": [224], "dtype": "float32"}, {"name": "StatefulPartitionedCall/sequential_1/batch_normalization_5/batchnorm/sub", "shape": [224], "dtype": "float32"}, {"name": "StatefulPartitionedCall/sequential_1/dense_7/MatMul/ReadVariableOp", "shape": [224, 20], "dtype": "float32"}, {"name": "StatefulPartitionedCall/sequential_1/dense_7/BiasAdd/ReadVariableOp", "shape": [20], "dtype": "float32"}]}]}